…
2025-07-05 17:46:38,102 INFO: Dataset PairedImageDataset - gopro-train is created.
2025-07-05 17:46:38,105 INFO: Training statistics:
	Number of train images: 16824
	Dataset enlarge ratio: 1
	Batch size per gpu: 1
	World size (gpu number): 1
	Require iter number per epoch: 16824
	Total epochs: 2; iters: 20000.
2025-07-05 17:46:38,295 INFO: Dataset PairedImageDataset - gopro-test is created.
2025-07-05 17:46:38,296 INFO: Number of val images/folders in gopro-test: 1111
2025-07-05 17:46:40,423 INFO: Network: HINet, with parameters: 5,548,454
2025-07-05 17:46:40,425 INFO: HINet(
  (down_path_1): ModuleList(
    (0): UNetConvBlock(
      (identity): Conv2d(16, 16, kernel_size=(1, 1), stride=(1, 1))
      (conv_1): Conv2d(16, 16, kernel_size=(3, 3), stride=(1, 1), padding=(1, 1))
      (relu_1): LeakyReLU(negative_slope=0.2)
      (conv_2): Conv2d(16, 16, kernel_size=(3, 3), stride=(1, 1), padding=(1, 1))
      (relu_2): LeakyReLU(negative_slope=0.2)
      (downsample): Conv2d(16, 16, kernel_size=(4, 4), stride=(2, 2), padding=(1, 1), bias=False)
    )
    (1): UNetConvBlock(
      (identity): Conv2d(16, 32, kernel_size=(1, 1), stride=(1, 1))
      (conv_1): Conv2d(16, 32, kernel_size=(3, 3), stride=(1, 1), padding=(1, 1))
      (relu_1): LeakyReLU(negative_slope=0.2)
      (conv_2): Conv2d(32, 32, kernel_size=(3, 3), stride=(1, 1), padding=(1, 1))
      (relu_2): LeakyReLU(negative_slope=0.2)
      (downsample): Conv2d(32, 32, kernel_size=(4, 4), stride=(2, 2), padding=(1, 1), bias=False)
    )
    (2): UNetConvBlock(
      (identity): Conv2d(32, 64, kernel_size=(1, 1), stride=(1, 1))
      (conv_1): Conv2d(32, 64, kernel_size=(3, 3), stride=(1, 1), padding=(1, 1))
      (relu_1): LeakyReLU(negative_slope=0.2)
      (conv_2): Conv2d(64, 64, kernel_size=(3, 3), stride=(1, 1), padding=(1, 1))
      (relu_2): LeakyReLU(negative_slope=0.2)
      (downsample): Conv2d(64, 64, kernel_size=(4, 4), stride=(2, 2), padding=(1, 1), bias=False)
    )
    (3): UNetConvBlock(
      (identity): Conv2d(64, 128, kernel_size=(1, 1), stride=(1, 1))
      (conv_1): Conv2d(64, 128, kernel_size=(3, 3), stride=(1, 1), padding=(1, 1))
      (relu_1): LeakyReLU(negative_slope=0.2)
      (conv_2): Conv2d(128, 128, kernel_size=(3, 3), stride=(1, 1), padding=(1, 1))
      (relu_2): LeakyReLU(negative_slope=0.2)
      (norm): InstanceNorm2d(64, eps=1e-05, momentum=0.1, affine=True, track_running_stats=False)
      (downsample): Conv2d(128, 128, kernel_size=(4, 4), stride=(2, 2), padding=(1, 1), bias=False)
    )
    (4): UNetConvBlock(
      (identity): Conv2d(128, 256, kernel_size=(1, 1), stride=(1, 1))
      (conv_1): Conv2d(128, 256, kernel_size=(3, 3), stride=(1, 1), padding=(1, 1))
      (relu_1): LeakyReLU(negative_slope=0.2)
      (conv_2): Conv2d(256, 256, kernel_size=(3, 3), stride=(1, 1), padding=(1, 1))
      (relu_2): LeakyReLU(negative_slope=0.2)
      (norm): InstanceNorm2d(128, eps=1e-05, momentum=0.1, affine=True, track_running_stats=False)
    )
  )
  (down_path_2): ModuleList(
    (0): UNetConvBlock(
      (identity): Conv2d(16, 16, kernel_size=(1, 1), stride=(1, 1))
      (conv_1): Conv2d(16, 16, kernel_size=(3, 3), stride=(1, 1), padding=(1, 1))
      (relu_1): LeakyReLU(negative_slope=0.2)
      (conv_2): Conv2d(16, 16, kernel_size=(3, 3), stride=(1, 1), padding=(1, 1))
      (relu_2): LeakyReLU(negative_slope=0.2)
      (csff_enc): Conv2d(16, 16, kernel_size=(3, 3), stride=(1, 1), padding=(1, 1))
      (csff_dec): Conv2d(16, 16, kernel_size=(3, 3), stride=(1, 1), padding=(1, 1))
      (downsample): Conv2d(16, 16, kernel_size=(4, 4), stride=(2, 2), padding=(1, 1), bias=False)
    )
    (1): UNetConvBlock(
      (identity): Conv2d(16, 32, kernel_size=(1, 1), stride=(1, 1))
      (conv_1): Conv2d(16, 32, kernel_size=(3, 3), stride=(1, 1), padding=(1, 1))
      (relu_1): LeakyReLU(negative_slope=0.2)
      (conv_2): Conv2d(32, 32, kernel_size=(3, 3), stride=(1, 1), padding=(1, 1))
      (relu_2): LeakyReLU(negative_slope=0.2)
      (csff_enc): Conv2d(32, 32, kernel_size=(3, 3), stride=(1, 1), padding=(1, 1))
      (csff_dec): Conv2d(32, 32, kernel_size=(3, 3), stride=(1, 1), padding=(1, 1))
      (downsample): Conv2d(32, 32, kernel_size=(4, 4), stride=(2, 2), padding=(1, 1), bias=False)
    )
    (2): UNetConvBlock(
      (identity): Conv2d(32, 64, kernel_size=(1, 1), stride=(1, 1))
      (conv_1): Conv2d(32, 64, kernel_size=(3, 3), stride=(1, 1), padding=(1, 1))
      (relu_1): LeakyReLU(negative_slope=0.2)
      (conv_2): Conv2d(64, 64, kernel_size=(3, 3), stride=(1, 1), padding=(1, 1))
      (relu_2): LeakyReLU(negative_slope=0.2)
      (csff_enc): Conv2d(64, 64, kernel_size=(3, 3), stride=(1, 1), padding=(1, 1))
      (csff_dec): Conv2d(64, 64, kernel_size=(3, 3), stride=(1, 1), padding=(1, 1))
      (downsample): Conv2d(64, 64, kernel_size=(4, 4), stride=(2, 2), padding=(1, 1), bias=False)
    )
    (3): UNetConvBlock(
      (identity): Conv2d(64, 128, kernel_size=(1, 1), stride=(1, 1))
      (conv_1): Conv2d(64, 128, kernel_size=(3, 3), stride=(1, 1), padding=(1, 1))
      (relu_1): LeakyReLU(negative_slope=0.2)
      (conv_2): Conv2d(128, 128, kernel_size=(3, 3), stride=(1, 1), padding=(1, 1))
      (relu_2): LeakyReLU(negative_slope=0.2)
      (csff_enc): Conv2d(128, 128, kernel_size=(3, 3), stride=(1, 1), padding=(1, 1))
      (csff_dec): Conv2d(128, 128, kernel_size=(3, 3), stride=(1, 1), padding=(1, 1))
      (norm): InstanceNorm2d(64, eps=1e-05, momentum=0.1, affine=True, track_running_stats=False)
      (downsample): Conv2d(128, 128, kernel_size=(4, 4), stride=(2, 2), padding=(1, 1), bias=False)
    )
    (4): UNetConvBlock(
      (identity): Conv2d(128, 256, kernel_size=(1, 1), stride=(1, 1))
      (conv_1): Conv2d(128, 256, kernel_size=(3, 3), stride=(1, 1), padding=(1, 1))
      (relu_1): LeakyReLU(negative_slope=0.2)
      (conv_2): Conv2d(256, 256, kernel_size=(3, 3), stride=(1, 1), padding=(1, 1))
      (relu_2): LeakyReLU(negative_slope=0.2)
      (norm): InstanceNorm2d(128, eps=1e-05, momentum=0.1, affine=True, track_running_stats=False)
    )
  )
  (conv_01): Conv2d(3, 16, kernel_size=(3, 3), stride=(1, 1), padding=(1, 1))
  (conv_02): Conv2d(3, 16, kernel_size=(3, 3), stride=(1, 1), padding=(1, 1))
  (up_path_1): ModuleList(
    (0): UNetUpBlock(
      (up): ConvTranspose2d(256, 128, kernel_size=(2, 2), stride=(2, 2))
      (conv_block): UNetConvBlock(
        (identity): Conv2d(256, 128, kernel_size=(1, 1), stride=(1, 1))
        (conv_1): Conv2d(256, 128, kernel_size=(3, 3), stride=(1, 1), padding=(1, 1))
        (relu_1): LeakyReLU(negative_slope=0.2)
        (conv_2): Conv2d(128, 128, kernel_size=(3, 3), stride=(1, 1), padding=(1, 1))
        (relu_2): LeakyReLU(negative_slope=0.2)
      )
    )
    (1): UNetUpBlock(
      (up): ConvTranspose2d(128, 64, kernel_size=(2, 2), stride=(2, 2))
      (conv_block): UNetConvBlock(
        (identity): Conv2d(128, 64, kernel_size=(1, 1), stride=(1, 1))
        (conv_1): Conv2d(128, 64, kernel_size=(3, 3), stride=(1, 1), padding=(1, 1))
        (relu_1): LeakyReLU(negative_slope=0.2)
        (conv_2): Conv2d(64, 64, kernel_size=(3, 3), stride=(1, 1), padding=(1, 1))
        (relu_2): LeakyReLU(negative_slope=0.2)
      )
    )
    (2): UNetUpBlock(
      (up): ConvTranspose2d(64, 32, kernel_size=(2, 2), stride=(2, 2))
      (conv_block): UNetConvBlock(
        (identity): Conv2d(64, 32, kernel_size=(1, 1), stride=(1, 1))
        (conv_1): Conv2d(64, 32, kernel_size=(3, 3), stride=(1, 1), padding=(1, 1))
        (relu_1): LeakyReLU(negative_slope=0.2)
        (conv_2): Conv2d(32, 32, kernel_size=(3, 3), stride=(1, 1), padding=(1, 1))
        (relu_2): LeakyReLU(negative_slope=0.2)
      )
    )
    (3): UNetUpBlock(
      (up): ConvTranspose2d(32, 16, kernel_size=(2, 2), stride=(2, 2))
      (conv_block): UNetConvBlock(
        (identity): Conv2d(32, 16, kernel_size=(1, 1), stride=(1, 1))
        (conv_1): Conv2d(32, 16, kernel_size=(3, 3), stride=(1, 1), padding=(1, 1))
        (relu_1): LeakyReLU(negative_slope=0.2)
        (conv_2): Conv2d(16, 16, kernel_size=(3, 3), stride=(1, 1), padding=(1, 1))
        (relu_2): LeakyReLU(negative_slope=0.2)
      )
    )
  )
  (up_path_2): ModuleList(
    (0): UNetUpBlock(
      (up): ConvTranspose2d(256, 128, kernel_size=(2, 2), stride=(2, 2))
      (conv_block): UNetConvBlock(
        (identity): Conv2d(256, 128, kernel_size=(1, 1), stride=(1, 1))
        (conv_1): Conv2d(256, 128, kernel_size=(3, 3), stride=(1, 1), padding=(1, 1))
        (relu_1): LeakyReLU(negative_slope=0.2)
        (conv_2): Conv2d(128, 128, kernel_size=(3, 3), stride=(1, 1), padding=(1, 1))
        (relu_2): LeakyReLU(negative_slope=0.2)
      )
    )
    (1): UNetUpBlock(
      (up): ConvTranspose2d(128, 64, kernel_size=(2, 2), stride=(2, 2))
      (conv_block): UNetConvBlock(
        (identity): Conv2d(128, 64, kernel_size=(1, 1), stride=(1, 1))
        (conv_1): Conv2d(128, 64, kernel_size=(3, 3), stride=(1, 1), padding=(1, 1))
        (relu_1): LeakyReLU(negative_slope=0.2)
        (conv_2): Conv2d(64, 64, kernel_size=(3, 3), stride=(1, 1), padding=(1, 1))
        (relu_2): LeakyReLU(negative_slope=0.2)
      )
    )
    (2): UNetUpBlock(
      (up): ConvTranspose2d(64, 32, kernel_size=(2, 2), stride=(2, 2))
      (conv_block): UNetConvBlock(
        (identity): Conv2d(64, 32, kernel_size=(1, 1), stride=(1, 1))
        (conv_1): Conv2d(64, 32, kernel_size=(3, 3), stride=(1, 1), padding=(1, 1))
        (relu_1): LeakyReLU(negative_slope=0.2)
        (conv_2): Conv2d(32, 32, kernel_size=(3, 3), stride=(1, 1), padding=(1, 1))
        (relu_2): LeakyReLU(negative_slope=0.2)
      )
    )
    (3): UNetUpBlock(
      (up): ConvTranspose2d(32, 16, kernel_size=(2, 2), stride=(2, 2))
      (conv_block): UNetConvBlock(
        (identity): Conv2d(32, 16, kernel_size=(1, 1), stride=(1, 1))
        (conv_1): Conv2d(32, 16, kernel_size=(3, 3), stride=(1, 1), padding=(1, 1))
        (relu_1): LeakyReLU(negative_slope=0.2)
        (conv_2): Conv2d(16, 16, kernel_size=(3, 3), stride=(1, 1), padding=(1, 1))
        (relu_2): LeakyReLU(negative_slope=0.2)
      )
    )
  )
  (skip_conv_1): ModuleList(
    (0): Conv2d(128, 128, kernel_size=(3, 3), stride=(1, 1), padding=(1, 1))
    (1): Conv2d(64, 64, kernel_size=(3, 3), stride=(1, 1), padding=(1, 1))
    (2): Conv2d(32, 32, kernel_size=(3, 3), stride=(1, 1), padding=(1, 1))
    (3): Conv2d(16, 16, kernel_size=(3, 3), stride=(1, 1), padding=(1, 1))
  )
  (skip_conv_2): ModuleList(
    (0): Conv2d(128, 128, kernel_size=(3, 3), stride=(1, 1), padding=(1, 1))
    (1): Conv2d(64, 64, kernel_size=(3, 3), stride=(1, 1), padding=(1, 1))
    (2): Conv2d(32, 32, kernel_size=(3, 3), stride=(1, 1), padding=(1, 1))
    (3): Conv2d(16, 16, kernel_size=(3, 3), stride=(1, 1), padding=(1, 1))
  )
  (sam12): SAM(
    (conv1): Conv2d(16, 16, kernel_size=(3, 3), stride=(1, 1), padding=(1, 1))
    (conv2): Conv2d(16, 3, kernel_size=(3, 3), stride=(1, 1), padding=(1, 1))
    (conv3): Conv2d(3, 16, kernel_size=(3, 3), stride=(1, 1), padding=(1, 1))
  )
  (cat12): Conv2d(32, 16, kernel_size=(1, 1), stride=(1, 1))
  (last): Conv2d(16, 3, kernel_size=(3, 3), stride=(1, 1), padding=(1, 1))
)
2025-07-05 17:46:41,435 INFO: Model [ImageRestorationModel] is created.
2025-07-05 17:47:00,058 INFO: Start training from epoch: 0, iter: 0
